…
_DIR: ../../../../../models
MODEL: small_lstm
/Users/grey/OSMI/lib/python3.10/site-packages/_distutils_hack/__init__.py:33: UserWarning: Setuptools is replacing distutils.
  warnings.warn("Setuptools is replacing distutils.")
Model: "model"
_________________________________________________________________
 Layer (type)                Output Shape              Param #   
=================================================================
 inputs (InputLayer)         [(None, 8, 48)]           0         
                                                                 
 lstm (LSTM)                 (None, 8, 256)            312320    
                                                                 
 lstm_1 (LSTM)               (None, 8, 256)            525312    
                                                                 
 lstm_2 (LSTM)               (None, 8, 256)            525312    
                                                                 
 lstm_3 (LSTM)               (None, 256)               525312    
                                                                 
 dense (Dense)               (None, 256)               65792     
                                                                 
 dense_1 (Dense)             (None, 128)               32896     
                                                                 
 dense_2 (Dense)             (None, 24)                3096      
                                                                 
 outputs (Reshape)           (None, 2, 12)             0         
                                                                 
=================================================================
Total params: 1990040 (7.59 MB)
Trainable params: 1990040 (7.59 MB)
Non-trainable params: 0 (0.00 Byte)
_________________________________________________________________
Epoch 1/5
1/4 [======>.......................] - ETA: 2s - loss: 0.51093/4 [=====================>........] - ETA: 0s - loss: 0.43764/4 [==============================] - 1s 25ms/step - loss: 0.4319
…
